MODEL SUMMARY
==================================================

Architecture: TetrahedronPairNet
Total Parameters: 74,882
Trainable Parameters: 74,882
Input Dimension: 24
Task: IntersectionStatus_IntersectionVolume

Model Structure:
TetrahedronPairNet(
  (activation): ReLU()
  (shared_layers): Sequential(
    (0): Linear(in_features=32, out_features=256, bias=True)
  )
  (classification_head): Sequential(
    (0): Linear(in_features=256, out_features=16, bias=True)
    (1): ReLU()
    (2): Linear(in_features=16, out_features=1, bias=True)
  )
  (regression_head): Sequential(
    (0): Linear(in_features=256, out_features=16, bias=True)
    (1): ReLU()
    (2): Linear(in_features=16, out_features=1, bias=True)
  )
  (vertex_processors): ModuleList(
    (0-7): 8 x Sequential(
      (0): Linear(in_features=3, out_features=48, bias=True)
      (1): ReLU()
      (2): Linear(in_features=48, out_features=48, bias=True)
      (3): ReLU()
      (4): Linear(in_features=48, out_features=48, bias=True)
    )
  )
  (vertex_residuals): ModuleList(
    (0-7): 8 x Linear(in_features=3, out_features=48, bias=True)
  )
  (tetrahedron_processor_1): Sequential(
    (0): Linear(in_features=48, out_features=64, bias=True)
    (1): ReLU()
    (2): Linear(in_features=64, out_features=64, bias=True)
  )
  (tetrahedron_processor_2): Sequential(
    (0): Linear(in_features=48, out_features=64, bias=True)
    (1): ReLU()
    (2): Linear(in_features=64, out_features=64, bias=True)
  )
  (feature_combiner): Sequential(
    (0): Linear(in_features=64, out_features=32, bias=True)
  )
  (global_residual): Linear(in_features=24, out_features=32, bias=True)
)